…
Configure(dataset='cifar', arch='resnet', depth=20, module='ResNetBasicblock', super_type='infer-shape', zero_init_residual=False, class_num=10, search_mode='shape', xchannels=[3, 16, 14, 14, 12, 14, 16, 4, 32, 32, 32, 32, 32, 9, 64, 64, 64, 64, 64, 64], xblocks=[2, 2, 3], estimated_FLOP=27.210368)
./configs/opts/CIFAR-E300-W5-L1-COS.config
Configure(scheduler='cos', eta_min=0.0, epochs=300, warmup=5, optim='SGD', LR=0.1, decay=0.0005, momentum=0.9, nesterov=True, criterion='Softmax', auxiliary=-1.0, class_num=10)
model ====>>>>:
InferCifarResNet(
  (layers): ModuleList(
    (0): ConvBNReLU(
      (conv): Conv2d(3, 16, kernel_size=(3, 3), stride=(1, 1), padding=(1, 1), bias=False)
      (bn): BatchNorm2d(16, eps=1e-05, momentum=0.1, affine=True, track_running_stats=True)
      (relu): ReLU(inplace=True)
    )
    (1): ResNetBasicblock(
      (conv_a): ConvBNReLU(
        (conv): Conv2d(16, 14, kernel_size=(3, 3), stride=(1, 1), padding=(1, 1), bias=False)
        (bn): BatchNorm2d(14, eps=1e-05, momentum=0.1, affine=True, track_running_stats=True)
        (relu): ReLU(inplace=True)
      )
      (conv_b): ConvBNReLU(
        (conv): Conv2d(14, 14, kernel_size=(3, 3), stride=(1, 1), padding=(1, 1), bias=False)
        (bn): BatchNorm2d(14, eps=1e-05, momentum=0.1, affine=True, track_running_stats=True)
      )
      (downsample): ConvBNReLU(
        (conv): Conv2d(16, 14, kernel_size=(1, 1), stride=(1, 1), bias=False)
        (bn): BatchNorm2d(14, eps=1e-05, momentum=0.1, affine=True, track_running_stats=True)
      )
    )
    (2): ResNetBasicblock(
      (conv_a): ConvBNReLU(
        (conv): Conv2d(14, 12, kernel_size=(3, 3), stride=(1, 1), padding=(1, 1), bias=False)
        (bn): BatchNorm2d(12, eps=1e-05, momentum=0.1, affine=True, track_running_stats=True)
        (relu): ReLU(inplace=True)
      )
      (conv_b): ConvBNReLU(
        (conv): Conv2d(12, 14, kernel_size=(3, 3), stride=(1, 1), padding=(1, 1), bias=False)
        (bn): BatchNorm2d(14, eps=1e-05, momentum=0.1, affine=True, track_running_stats=True)
      )
    )
    (3): ResNetBasicblock(
      (conv_a): ConvBNReLU(
        (conv): Conv2d(14, 32, kernel_size=(3, 3), stride=(2, 2), padding=(1, 1), bias=False)
        (bn): BatchNorm2d(32, eps=1e-05, momentum=0.1, affine=True, track_running_stats=True)
        (relu): ReLU(inplace=True)
      )
      (conv_b): ConvBNReLU(
        (conv): Conv2d(32, 32, kernel_size=(3, 3), stride=(1, 1), padding=(1, 1), bias=False)
        (bn): BatchNorm2d(32, eps=1e-05, momentum=0.1, affine=True, track_running_stats=True)
      )
      (downsample): ConvBNReLU(
        (avg): AvgPool2d(kernel_size=2, stride=2, padding=0)
        (conv): Conv2d(14, 32, kernel_size=(1, 1), stride=(1, 1), bias=False)
      )
    )
    (4): ResNetBasicblock(
      (conv_a): ConvBNReLU(
        (conv): Conv2d(32, 32, kernel_size=(3, 3), stride=(1, 1), padding=(1, 1), bias=False)
        (bn): BatchNorm2d(32, eps=1e-05, momentum=0.1, affine=True, track_running_stats=True)
        (relu): ReLU(inplace=True)
      )
      (conv_b): ConvBNReLU(
        (conv): Conv2d(32, 32, kernel_size=(3, 3), stride=(1, 1), padding=(1, 1), bias=False)
        (bn): BatchNorm2d(32, eps=1e-05, momentum=0.1, affine=True, track_running_stats=True)
      )
    )
    (5): ResNetBasicblock(
      (conv_a): ConvBNReLU(
        (conv): Conv2d(32, 64, kernel_size=(3, 3), stride=(2, 2), padding=(1, 1), bias=False)
        (bn): BatchNorm2d(64, eps=1e-05, momentum=0.1, affine=True, track_running_stats=True)
        (relu): ReLU(inplace=True)
      )
      (conv_b): ConvBNReLU(
        (conv): Conv2d(64, 64, kernel_size=(3, 3), stride=(1, 1), padding=(1, 1), bias=False)
        (bn): BatchNorm2d(64, eps=1e-05, momentum=0.1, affine=True, track_running_stats=True)
      )
      (downsample): ConvBNReLU(
        (avg): AvgPool2d(kernel_size=2, stride=2, padding=0)
        (conv): Conv2d(32, 64, kernel_size=(1, 1), stride=(1, 1), bias=False)
      )
    )
    (6): ResNetBasicblock(
      (conv_a): ConvBNReLU(
        (conv): Conv2d(64, 64, kernel_size=(3, 3), stride=(1, 1), padding=(1, 1), bias=False)
        (bn): BatchNorm2d(64, eps=1e-05, momentum=0.1, affine=True, track_running_stats=True)
        (relu): ReLU(inplace=True)
      )
      (conv_b): ConvBNReLU(
        (conv): Conv2d(64, 64, kernel_size=(3, 3), stride=(1, 1), padding=(1, 1), bias=False)
        (bn): BatchNorm2d(64, eps=1e-05, momentum=0.1, affine=True, track_running_stats=True)
      )
    )
    (7): ResNetBasicblock(
      (conv_a): ConvBNReLU(
        (conv): Conv2d(64, 64, kernel_size=(3, 3), stride=(1, 1), padding=(1, 1), bias=False)
        (bn): BatchNorm2d(64, eps=1e-05, momentum=0.1, affine=True, track_running_stats=True)
        (relu): ReLU(inplace=True)
      )
      (conv_b): ConvBNReLU(
        (conv): Conv2d(64, 64, kernel_size=(3, 3), stride=(1, 1), padding=(1, 1), bias=False)
        (bn): BatchNorm2d(64, eps=1e-05, momentum=0.1, affine=True, track_running_stats=True)
      )
    )
  )
  (avgpool): AvgPool2d(kernel_size=8, stride=8, padding=0)
  (classifier): Linear(in_features=64, out_features=10, bias=True)
)
model information : InferWidthCifarResNet : Depth : 20 , Layers for each block : 3
stage=0, ilayer=00/03, block=001, iCs=[16, 14, 14], oC= 14, stride=1
stage=0, ilayer=01/03, block=002, iCs=[14, 12, 14], oC= 14, stride=1
stage=1, ilayer=00/03, block=003, iCs=[14, 32, 32], oC= 32, stride=2
stage=1, ilayer=01/03, block=004, iCs=[32, 32, 32], oC= 32, stride=1
…
