…
Configure(dataset='cifar', arch='resnet', depth=32, module='ResNetBasicblock', super_type='infer-shape', zero_init_residual=False, class_num=10, search_mode='shape', xchannels=[3, 16, 14, 8, 12, 9, 14, 16, 4, 4, 4, 4, 32, 32, 32, 22, 32, 32, 28, 9, 25, 9, 64, 64, 64, 64, 64, 64, 19, 19, 19, 19], xblocks=[3, 3, 3], estimated_FLOP=32.172222)
./configs/opts/CIFAR-E300-W5-L1-COS.config
Configure(scheduler='cos', eta_min=0.0, epochs=300, warmup=5, optim='SGD', LR=0.1, decay=0.0005, momentum=0.9, nesterov=True, criterion='Softmax', auxiliary=-1.0, class_num=10)
model ====>>>>:
InferCifarResNet(
  (layers): ModuleList(
    (0): ConvBNReLU(
      (conv): Conv2d(3, 16, kernel_size=(3, 3), stride=(1, 1), padding=(1, 1), bias=False)
      (bn): BatchNorm2d(16, eps=1e-05, momentum=0.1, affine=True, track_running_stats=True)
      (relu): ReLU(inplace=True)
    )
    (1): ResNetBasicblock(
      (conv_a): ConvBNReLU(
        (conv): Conv2d(16, 14, kernel_size=(3, 3), stride=(1, 1), padding=(1, 1), bias=False)
        (bn): BatchNorm2d(14, eps=1e-05, momentum=0.1, affine=True, track_running_stats=True)
        (relu): ReLU(inplace=True)
      )
      (conv_b): ConvBNReLU(
        (conv): Conv2d(14, 8, kernel_size=(3, 3), stride=(1, 1), padding=(1, 1), bias=False)
        (bn): BatchNorm2d(8, eps=1e-05, momentum=0.1, affine=True, track_running_stats=True)
      )
      (downsample): ConvBNReLU(
        (conv): Conv2d(16, 8, kernel_size=(1, 1), stride=(1, 1), bias=False)
        (bn): BatchNorm2d(8, eps=1e-05, momentum=0.1, affine=True, track_running_stats=True)
      )
    )
    (2): ResNetBasicblock(
      (conv_a): ConvBNReLU(
        (conv): Conv2d(8, 12, kernel_size=(3, 3), stride=(1, 1), padding=(1, 1), bias=False)
        (bn): BatchNorm2d(12, eps=1e-05, momentum=0.1, affine=True, track_running_stats=True)
        (relu): ReLU(inplace=True)
      )
      (conv_b): ConvBNReLU(
        (conv): Conv2d(12, 9, kernel_size=(3, 3), stride=(1, 1), padding=(1, 1), bias=False)
        (bn): BatchNorm2d(9, eps=1e-05, momentum=0.1, affine=True, track_running_stats=True)
      )
      (downsample): ConvBNReLU(
        (conv): Conv2d(8, 9, kernel_size=(1, 1), stride=(1, 1), bias=False)
        (bn): BatchNorm2d(9, eps=1e-05, momentum=0.1, affine=True, track_running_stats=True)
      )
    )
    (3): ResNetBasicblock(
      (conv_a): ConvBNReLU(
        (conv): Conv2d(9, 14, kernel_size=(3, 3), stride=(1, 1), padding=(1, 1), bias=False)
        (bn): BatchNorm2d(14, eps=1e-05, momentum=0.1, affine=True, track_running_stats=True)
        (relu): ReLU(inplace=True)
      )
      (conv_b): ConvBNReLU(
        (conv): Conv2d(14, 16, kernel_size=(3, 3), stride=(1, 1), padding=(1, 1), bias=False)
        (bn): BatchNorm2d(16, eps=1e-05, momentum=0.1, affine=True, track_running_stats=True)
      )
      (downsample): ConvBNReLU(
        (conv): Conv2d(9, 16, kernel_size=(1, 1), stride=(1, 1), bias=False)
        (bn): BatchNorm2d(16, eps=1e-05, momentum=0.1, affine=True, track_running_stats=True)
      )
    )
    (4): ResNetBasicblock(
      (conv_a): ConvBNReLU(
        (conv): Conv2d(16, 32, kernel_size=(3, 3), stride=(2, 2), padding=(1, 1), bias=False)
        (bn): BatchNorm2d(32, eps=1e-05, momentum=0.1, affine=True, track_running_stats=True)
        (relu): ReLU(inplace=True)
      )
      (conv_b): ConvBNReLU(
        (conv): Conv2d(32, 32, kernel_size=(3, 3), stride=(1, 1), padding=(1, 1), bias=False)
        (bn): BatchNorm2d(32, eps=1e-05, momentum=0.1, affine=True, track_running_stats=True)
      )
      (downsample): ConvBNReLU(
        (avg): AvgPool2d(kernel_size=2, stride=2, padding=0)
        (conv): Conv2d(16, 32, kernel_size=(1, 1), stride=(1, 1), bias=False)
      )
    )
    (5): ResNetBasicblock(
      (conv_a): ConvBNReLU(
        (conv): Conv2d(32, 32, kernel_size=(3, 3), stride=(1, 1), padding=(1, 1), bias=False)
        (bn): BatchNorm2d(32, eps=1e-05, momentum=0.1, affine=True, track_running_stats=True)
        (relu): ReLU(inplace=True)
      )
      (conv_b): ConvBNReLU(
        (conv): Conv2d(32, 22, kernel_size=(3, 3), stride=(1, 1), padding=(1, 1), bias=False)
        (bn): BatchNorm2d(22, eps=1e-05, momentum=0.1, affine=True, track_running_stats=True)
      )
      (downsample): ConvBNReLU(
        (conv): Conv2d(32, 22, kernel_size=(1, 1), stride=(1, 1), bias=False)
        (bn): BatchNorm2d(22, eps=1e-05, momentum=0.1, affine=True, track_running_stats=True)
      )
    )
    (6): ResNetBasicblock(
      (conv_a): ConvBNReLU(
        (conv): Conv2d(22, 32, kernel_size=(3, 3), stride=(1, 1), padding=(1, 1), bias=False)
        (bn): BatchNorm2d(32, eps=1e-05, momentum=0.1, affine=True, track_running_stats=True)
        (relu): ReLU(inplace=True)
      )
      (conv_b): ConvBNReLU(
        (conv): Conv2d(32, 32, kernel_size=(3, 3), stride=(1, 1), padding=(1, 1), bias=False)
        (bn): BatchNorm2d(32, eps=1e-05, momentum=0.1, affine=True, track_running_stats=True)
      )
      (downsample): ConvBNReLU(
        (conv): Conv2d(22, 32, kernel_size=(1, 1), stride=(1, 1), bias=False)
        (bn): BatchNorm2d(32, eps=1e-05, momentum=0.1, affine=True, track_running_stats=True)
      )
    )
    (7): ResNetBasicblock(
      (conv_a): ConvBNReLU(
        (conv): Conv2d(32, 64, kernel_size=(3, 3), stride=(2, 2), padding=(1, 1), bias=False)
        (bn): BatchNorm2d(64, eps=1e-05, momentum=0.1, affine=True, track_running_stats=True)
        (relu): ReLU(inplace=True)
      )
      (conv_b): ConvBNReLU(
        (conv): Conv2d(64, 64, kernel_size=(3, 3), stride=(1, 1), padding=(1, 1), bias=False)
        (bn): BatchNorm2d(64, eps=1e-05, momentum=0.1, affine=True, track_running_stats=True)
      )
      (downsample): ConvBNReLU(
        (avg): AvgPool2d(kernel_size=2, stride=2, padding=0)
        (conv): Conv2d(32, 64, kernel_size=(1, 1), stride=(1, 1), bias=False)
      )
    )
    (8): ResNetBasicblock(
      (conv_a): ConvBNReLU(
        (conv): Conv2d(64, 64, kernel_size=(3, 3), stride=(1, 1), padding=(1, 1), bias=False)
        (bn): BatchNorm2d(64, eps=1e-05, momentum=0.1, affine=True, track_running_stats=True)
        (relu): ReLU(inplace=True)
      )
      (conv_b): ConvBNReLU(
        (conv): Conv2d(64, 64, kernel_size=(3, 3), stride=(1, 1), padding=(1, 1), bias=False)
        (bn): BatchNorm2d(64, eps=1e-05, momentum=0.1, affine=True, track_running_stats=True)
      )
    )
    (9): ResNetBasicblock(
      (conv_a): ConvBNReLU(
        (conv): Conv2d(64, 64, kernel_size=(3, 3), stride=(1, 1), padding=(1, 1), bias=False)
        (bn): BatchNorm2d(64, eps=1e-05, momentum=0.1, affine=True, track_running_stats=True)
        (relu): ReLU(inplace=True)
      )
      (conv_b): ConvBNReLU(
        (conv): Conv2d(64, 64, kernel_size=(3, 3), stride=(1, 1), padding=(1, 1), bias=False)
        (bn): BatchNorm2d(64, eps=1e-05, momentum=0.1, affine=True, track_running_stats=True)
      )
    )
  )
  (avgpool): AvgPool2d(kernel_size=8, stride=8, padding=0)
  (classifier): Linear(in_features=64, out_features=10, bias=True)
)
model information : InferWidthCifarResNet : Depth : 32 , Layers for each block : 5
stage=0, ilayer=00/05, block=001, iCs=[16, 14, 8], oC=  8, stride=1
stage=0, ilayer=01/05, block=002, iCs=[8, 12, 9], oC=  9, stride=1
stage=0, ilayer=02/05, block=003, iCs=[9, 14, 16], oC= 16, stride=1
stage=1, ilayer=00/05, block=004, iCs=[16, 32, 32], oC= 32, stride=2
…
